app/src/main/assets/pinyin_model(initial).tflite (tflite, 701992 bytes, 11 tensors)

arith.constant f4 [32]
000000 b8 91 08 be 95 ed 1f 3c c4 25 28 3e 00 1c 48 3c
       -0.13336837 0.009761234 0.16420656 0.012213707
000010 4a 68 38 3d 89 90 cd bc a2 a0 85 3c 7a ea c4 3c
       0.045021333 -0.025093334 0.016311947 0.024037588
000020 86 9a f5 3c 7c 6e 3b 3d 8e 0a 4c 3d e0 4d 3a 3d
       0.02998091 0.045759663 0.049814753 0.045484424
000030 ee 75 3b 3d 44 ff 40 3d 65 11 20 be 8d bc bf be
       0.045766763 0.04711844 -0.15631635 -0.3744854
000040 3a e1 19 3d ec 43 39 3d dc e8 0a 3c 2a 1a 1c 3d
       0.03756831 0.04523079 0.00847837 0.03811089
000050 7a 42 0f 3d d5 5a c7 3c 4d a8 fb 3d 20 96 c7 bd
       0.034975506 0.024335304 0.1228796 -0.09745431
000060 52 14 a2 3c de 62 b0 be fa b7 6e be b1 62 31 bf
       0.01978508 -0.3445043 -0.23312369 -0.69291216
000070 fe 92 0d be 70 33 d0 3c 9a f9 50 3d df f6 a9 be
       -0.13825604 0.025415152 0.05101929 -0.3319616

arith.constant1 f4 [32, 3, 3, 1]
000000 55 71 05 3e 38 33 28 3e e4 83 2e 3e 58 42 58 be
       0.13031514 0.16425788 0.170425 -0.21119058
000010 9d ed 2b 3e 47 0f 49 3c 86 65 80 3d e3 1d 49 3e
       0.16789861 0.012271709 0.06269364 0.19640307
000020 6e 76 6e bd d4 f3 1f be a1 10 25 be f1 2e 3c bd
       -0.058218412 -0.15620357 -0.16119625 -0.045943204
000030 a1 a6 17 bd 3d d2 47 3e 91 8d a5 bd fa ae 5f 3e
       -0.037024144 0.19513793 -0.08083642 0.21844092
000040 e0 2f ac 3d b9 13 9d bd 04 6a 37 3e 52 c8 2d bf
       0.08407569 -0.076697774 0.17911536 -0.6788379
000050 20 3b cf 3d fd 93 55 3e ef b0 47 bf bc ae 7a bc
       0.10118699 0.20857234 -0.78004354 -0.015300449
000060 00 99 aa 3e 46 ea fb be 84 c3 c1 3e d7 9d af bd
       0.33319855 -0.49202174 0.3784448 -0.085750274
000070 52 6c d9 3c 58 fa 5e 3d d0 1e b1 bd d4 31 b8 be
       0.026540909 0.054437965 -0.08648455 -0.35975516
000080 a2 b0 4e be 42 71 34 3e 9a 71 a6 3d 3d 1c 4a 3e
       -0.20184568 0.1762133 0.081271365 0.19737335
000090 a3 11 26 3e 39 63 18 3d c5 9a 95 3d b0 ff 84 3e
       0.16217665 0.037204 0.073049106 0.25976324
0000a0 36 d6 8d be 6e 73 40 be 45 6b 31 3e d7 30 86 be
       -0.27702492 -0.18794033 0.17326076 -0.26209137
0000b0 bd b5 86 be 6b 93 7d bd 58 8f 51 bd 2b 8a 3b bb
       -0.2631053 -0.061908167 -0.051162094 -0.002861629
0000c0 20 f6 f8 bb 50 59 21 3d de f6 5c bd b3 8a 48 bd
       -0.0075976998 0.039391816 -0.05394637 -0.0489604
0000d0 8a ca 40 3c 80 4e ae bc 4b 34 41 be 07 32 bc 3e
       0.011767039 -0.021277666 -0.18867604 0.36756918
0000e0 fe 7f e0 bd 4c 17 f3 3c 0d 41 8a 3d 2a f6 5e be
       -0.109619126 0.029674195 0.06750689 -0.21773592
0000f0 04 be 3b 3d 8c ce 56 be 4f 20 28 3d 3e 34 a7 bd
       0.04583551 -0.20977229 0.041046437 -0.08164261
000100 3d 7d 19 bd 0a b0 88 be 73 f0 36 3e 18 7b 48 3d
       -0.037472952 -0.26696807 0.17865162 0.048945516
000110 ad 4c 02 be f8 b9 65 3e 9d 65 26 3c dc bd 5e be
       -0.12724562 0.22434223 0.010156062 -0.21752113
000120 aa f8 32 3c 50 87 44 3e aa c8 01 be 7b 27 59 3d
       0.010923544 0.19192243 -0.12674204 0.053016167
000130 17 3b 9a bd 40 9a 2d be 18 4c 22 3d 7b d7 3a be
       -0.07530802 -0.16953373 0.03962335 -0.18246262
000140 9a 9f 66 be 7e f7 5d 3c 19 04 a6 3e a3 4c b9 3d
       -0.2252182 0.013547776 0.32425 0.090478204
000150 05 d6 40 3e 93 bb ff 3d 8a fd ab be 33 f9 df 3d
       0.18831642 0.12486949 -0.33591872 0.10936203
000160 7a 6b 80 be eb fa 0c bf 16 0e 06 3f ca ae c5 3e
       -0.25081998 -0.5507037 0.52365243 0.38609916
000170 c9 ac 01 3f 17 c9 dc bc e4 cc 22 be 20 ff 27 be
       0.50654274 -0.026951356 -0.15898472 -0.16405916
000180 f0 ef c5 be 08 15 fb be 07 84 78 be df 83 e4 be
       -0.3865962 -0.49039483 -0.24269114 -0.4463186
000190 7e 10 bd be bc 58 d2 be e7 07 df 3d 63 2a 2b 3e
       -0.36926645 -0.41083324 0.10890179 0.16715388
0001a0 01 fa 3e be d2 16 a6 3e d0 9b b2 3e 5b 21 41 3e
       -0.18650056 0.32439286 0.348845 0.1886038
0001b0 82 bf 23 bf 29 c7 07 bf 21 05 96 be 41 66 58 3e
       -0.6396409 -0.5303827 -0.29300788 0.21132757
0001c0 e9 61 39 3e 2c bf 87 bd 11 29 af 3e c5 28 e0 3e
       0.18103756 -0.0662826 0.3421102 0.43781105
0001d0 23 a9 81 3e 81 5a 38 3e 15 6a 22 3f 6a 57 8a 3e
       0.25324354 0.18003275 0.6344312 0.27019817
0001e0 a6 9c a6 be 8d ab 5e 3e 7d be 79 bd 20 f0 11 bf
       -0.32541388 0.21745129 -0.06097268 -0.57007027
0001f0 96 56 bf bd f9 5a db 3d 95 ba 25 be 36 c2 84 bd
       -0.09342687 0.10710711 -0.16184457 -0.06482355
000200 07 3a 97 3d ef 9e d9 3d 7d 3b 4b 3c 29 96 11 3e
       0.07384115 0.10626017 0.01240432 0.14217438
000210 9d bb 3f 3e 43 13 87 3e ad da 9b 3e 53 75 86 bd
       0.18723913 0.26381883 0.30440274 -0.065653466
000220 56 72 12 3f 08 ac 7a 3e 72 b7 1d 3e b6 21 cf 3e
       0.5720571 0.24479687 0.1540201 0.40455407
000230 98 a1 8f 3e 7a 6b 9a bd 0a 54 dc 3e 54 78 8e 3d
       0.28052974 -0.07540031 0.43032867 0.069565445
000240 1d 27 96 be 7d 7f 6a 3e e8 1e c8 3d a4 1e 7e be
       -0.29326716 0.22900195 0.0977152 -0.24816376
000250 34 73 1e be dc 95 b1 3e 55 5a a6 be eb 47 12 be
       -0.15473634 0.34684646 -0.32490793 -0.14285247
000260 da 3d cf 3e 3e 29 24 bf 42 7e 6b 3d 42 d1 a8 be
       0.40476876 -0.6412543 0.057493456 -0.3297215
000270 83 ef c6 be ed dc 28 3c 77 83 96 bd 79 3d d3 3e
       -0.38854608 0.010306579 -0.07349294 0.41257837
000280 2a 4b 1a 3f a0 a3 c6 3e ae 13 fd be c1 59 a0 be
       0.6027094 0.3879671 -0.49429077 -0.31318477
000290 7a b6 03 3d ed be 09 3f e0 63 10 3e 5e ff 0a 3e
       0.032156445 0.53806955 0.141006 0.13573977
0002a0 8e 94 6d be 87 a8 f1 bc 6e 05 4b 3e 02 37 8f 3e
       -0.232012 -0.029499305 0.1982629 0.27971655
0002b0 19 c9 fc bd 10 43 03 bd db b3 c3 3e 0c 8c 22 bd
       -0.12343044 -0.032046378 0.38223156 -0.03968434
0002c0 26 c3 34 be d6 3e 3d 3e e6 50 13 be 0d 33 aa be
       -0.17652568 0.18481001 -0.14386329 -0.33242074
0002d0 1f 95 75 bd ad 54 0c 3f 5f 0a 27 3e 26 29 24 3e
       -0.059956666 0.54816705 0.1631255 0.16031322
0002e0 e4 d3 14 3e 7d 43 a2 be 8d be 54 bd d5 9b 23 be
       0.14533955 -0.31692114 -0.051939536 -0.15977414
0002f0 2c e2 17 bf dc 2d 2b be ba e5 c7 bd d6 73 0a be
       -0.59329486 -0.16716713 -0.09760614 -0.1352075
000300 69 7c 15 3e 94 0b 56 bd 24 0f cd be c3 c3 5d 3d
       0.1459824 -0.052257136 -0.40050614 0.05414177
000310 40 64 00 3f be d3 15 be 0a c6 ee be 48 1e ad 3e
       0.5015297 -0.14631554 -0.46635467 0.33812165
000320 17 ae 8e 3e 42 63 f8 be b2 81 91 3d 28 52 06 3f
       0.27867195 -0.48513228 0.071048155 0.5246911
000330 7c 30 14 bf 17 8c 55 3e 7b 8b 8e 3e bb 6c e3 bd
       -0.5788648 0.20854221 0.2784079 -0.11104723
000340 ff dc 37 3e 50 6a b1 3e 55 96 bc 3c 57 46 39 be
       0.17955397 0.34651423 0.023020903 -0.18093239
000350 ca 39 e0 bd 20 aa 92 3d 51 90 f8 3c d1 5e 20 3e
       -0.109485224 0.07161355 0.030342253 0.1566117
000360 ed 7a 3e 3d 33 0a 9b be b6 aa 95 be 95 46 27 bd
       0.04650395 -0.3028122 -0.29231805 -0.040838797
000370 90 6c f4 3d 2b f6 06 be 92 04 86 3e fd f7 1d 3e
       0.11934769 -0.13179843 0.26175362 0.15426631
000380 71 b3 b9 3d b7 0d 28 3e 7d 4b 8a 3e bc 44 dc 3e
       0.09067429 0.16411482 0.27010718 0.4302119
000390 64 27 22 bb b7 09 36 3e d7 fd 9c 3e 77 1f ab be
       -0.0024742717 0.17777143 0.30662414 -0.33422443
0003a0 70 5f 42 3d 59 7d 82 3e b1 1b 89 3e df a4 22 3d
       0.047454298 0.25486258 0.2677894 0.039708015
0003b0 d2 67 87 bd b6 7b 7f 3e 85 38 ad 3d 15 b8 23 3e
       -0.06611599 0.24949536 0.08458046 0.1598819
0003c0 97 19 40 3e f8 bb a0 3e 51 61 84 3e 2a 23 7f 3e
       0.18759762 0.3139341 0.25855497 0.24915758
0003d0 e6 fd d1 3d b0 a1 82 3e bf c0 49 3e 26 99 b6 3d
       0.102535054 0.25513983 0.19702433 0.089159295
0003e0 1c ad 34 3e 00 60 10 3e 9b 05 a8 3e 32 d7 82 3e
       0.17644161 0.14099121 0.32816777 0.25554806
0003f0 68 cd 09 3d db eb 2b 3e 23 1e ac 3e b2 ed f6 3c
       0.033643156 0.1678919 0.33616742 0.030142639

arith.constant2 f4 [124]
000000 ab 30 63 3d 59 a4 34 3d 7b b6 33 3d 27 37 08 3d
       0.055466335 0.044102047 0.0438752 0.033255722
000010 4b 6b 2b 3d cc 7d 71 bc e2 8a d5 bb 7f e4 23 3d
       0.04185037 -0.014739465 -0.0065168003 0.040012833
000020 96 74 5a bc 18 83 71 3d 04 45 77 3d 80 7b 7e 3d
       -0.01333346 0.05896291 0.060368553 0.062129498
000030 ac eb a5 3c db 93 b6 3c e7 f5 f5 3c 52 22 1b 3d
       0.020253979 0.0222873 0.030024482 0.037874527
000040 32 a6 65 bc f4 0c 52 3d 84 6b 84 3d b3 22 8f bc
       -0.014016675 0.051281884 0.064658195 -0.0174726
000050 ff a1 ea 3c e0 fc 2d 3d 85 a6 26 3d e9 5d 25 3d
       0.028641699 0.04247749 0.04068615 0.040372763
000060 41 4f 62 bc 44 5f 50 3d 86 5e 60 3d c9 75 6e bc
       -0.013812841 0.050872102 0.054777645 -0.014554449
000070 9a aa 6e 3d 55 d0 67 bb c8 f2 6a 3d 6e 9e 3f bc
       0.058268167 -0.0035371978 0.05736044 -0.011695487
000080 28 43 26 3d f7 68 03 bc 40 9b 4b bc 92 82 2f 3d
       0.04059139 -0.008020631 -0.012427151 0.04284913
000090 26 aa 3b be 31 db 73 3d 6b c3 ea bd ca d3 a8 bc
       -0.18326625 0.05953521 -0.11463054 -0.020608801
0000a0 85 3b 5c 3d 43 e5 5f bc 23 60 e0 3c c0 6e 83 bc
       0.0537677 -0.0136655 0.027389592 -0.01604402
0000b0 5e 6a 5e bc 36 e2 09 bd f9 65 75 bb da c6 6c 3d
       -0.013575165 -0.033662997 -0.0037444814 0.057806827
0000c0 10 6d 1e 3d 3e 6a 39 3d e2 ca 21 3d 34 5f 70 3d
       0.03867823 0.045267336 0.039500125 0.058684543
0000d0 26 6d 91 3d 46 5f f8 3c 32 a6 50 3d 77 e6 88 bc
       0.071008965 0.030318867 0.050939746 -0.016711457
0000e0 b1 87 29 3d 58 1c 27 bc ab 14 48 3d 27 b8 d4 3c
       0.04138917 -0.010199629 0.048847836 0.025966717
0000f0 f3 92 68 3d ce c8 a1 3d 30 74 40 3d b1 3c 08 bc
       0.056780767 0.078996286 0.046985805 -0.008315251
000100 79 1c 5b 3d 19 f1 70 3d 41 6c 82 bc 39 cd d2 3c
       0.05349395 0.05882368 -0.01592076 0.025732623
000110 9d 66 1c bb 28 6c 23 bc 7d f1 00 3d e6 3b fd bb
       -0.0023864873 -0.009974517 0.0314803 -0.0077280877
000120 24 64 83 bc 90 75 16 3d cd e5 0c 3d 39 c5 c3 3c
       -0.016038962 0.03673321 0.034398843 0.023897754
000130 ad a1 47 3d d9 02 9e bb e1 cd 13 bc 0f 6e 15 3d
       0.04873817 -0.004822117 -0.009021253 0.036481913
000140 42 ee 1b 3d e3 2c 2c 3d d9 da 5d bc f3 78 8c bb
       0.038069017 0.042034995 -0.013540947 -0.004286879
000150 35 96 c3 bc ab f2 29 3d eb 39 64 3d 72 79 11 3d
       -0.023875335 0.04149119 0.055719297 0.03551621
000160 62 bf 5d 3d b2 b0 ee bc 01 af 6b 3d cb 0a 27 3d
       0.054137595 -0.02913699 0.057539944 0.040781777
000170 1f f9 09 3d fa 06 b6 bc 2e cf c2 3c 81 76 50 3d
       0.033684846 -0.022220124 0.023780432 0.050894264
000180 29 0c 01 bc d2 da 1b 3d 1a e3 12 3d e6 8a 5f 3d
       -0.007876434 0.03805048 0.035861112 0.054575823
000190 39 8a 29 3d 24 b0 5c 3d 8d 2c 68 bc 04 d5 45 3d
       0.041391585 0.05387892 -0.014170778 0.04829885
0001a0 7b 26 5a bb 44 d6 4d 3d 98 17 4b 3d 81 63 6c 3d
       -0.0033287096 0.050253168 0.049583048 0.05771208
0001b0 79 dc 30 be 97 80 33 3d 88 2c 0a ba f8 ff fd 3c
       -0.17271604 0.043823805 -0.0005270918 0.031005844
0001c0 36 cb fc 3c 98 d2 65 3d 84 2d 52 3d 2c 57 31 3d
       0.030858617 0.05610904 0.05131294 0.043296024
0001d0 75 a0 13 3d 93 66 40 3d 43 44 24 3d 35 95 2f bc
       0.036041696 0.046972822 0.040104162 -0.010716726
0001e0 d8 cc 21 3d 74 96 34 3d 21 5b 53 3d 61 a2 64 3d
       0.039501995 0.044088796 0.05160058 0.05581892

arith.constant3 f4 [68]
000000 17 24 c3 3c 43 78 05 bc 82 82 47 3d 97 fb 6d bd
       0.02382092 -0.008146348 0.048708446 -0.058101263
000010 6c 3a 99 3b a9 2f 64 bc e4 e5 46 bc 05 92 f9 3c
       0.004676154 -0.013927379 -0.012139771 0.030465135
000020 e7 73 a0 ba 44 f5 c0 be 32 b9 4b bc 93 e8 8a bc
       -0.0012241573 -0.37687123 -0.012434291 -0.016956603
000030 fd c7 c0 bc dd 02 8c bc dd 75 74 bb 60 fd df 3c
       -0.023532862 -0.01709121 -0.0037301697 0.027342498
000040 e5 f7 7d 3d 5d d9 50 3d cf c5 61 bc cb dc 79 bd
       0.06200399 0.050988544 -0.013780071 -0.06100158
000050 55 bb dd bb 6e f2 87 3d fe b0 71 bc c6 ab c0 3c
       -0.0067667165 0.06638037 -0.014751671 0.023519408
000060 5a 96 03 bc d2 f6 4e bd d1 91 95 3c e8 25 ea 3c
       -0.008031452 -0.050528355 0.018258007 0.028582528
000070 b4 7c b6 bc 02 94 a2 3c 13 94 bc 3c b1 f3 1d 3c
       -0.02227626 0.019845966 0.023019826 0.00964062
000080 7d 0c 7d bc 6c fc 50 bd 24 ad f9 bc ed 46 de bb
       -0.015444872 -0.05102198 -0.030478068 -0.0067833574
000090 c0 5e 9a 3c 51 08 39 bd 0b c9 1f 3d 6b f3 2b 3d
       0.018844008 -0.045173947 0.03901009 0.04198019
0000a0 09 78 d2 3c 9b f0 2d bb 18 e2 01 be ac 54 13 3d
       0.025692003 -0.0026541117 -0.12683904 0.03596942
0000b0 c3 5d ba 3c ca 21 38 bd f2 6d f1 3b 49 b9 2e bd
       0.022749787 -0.0449541 0.007367843 -0.04265717
0000c0 fb cd 04 3d cd 05 03 3d 02 9a 09 bd b3 f8 ea 3c
       0.032423 0.031987954 -0.03359414 0.028683042
0000d0 ab 74 17 3d 57 b4 10 bb bf 46 64 bc c3 f3 35 be
       0.036976498 -0.0022080147 -0.013932883 -0.17768769
0000e0 2b 56 0c 3d 75 1c 4e be bf ce 3d bc f9 e4 b3 3c
       0.034261864 -0.20128043 -0.011584937 0.021959769
0000f0 47 7b d2 bc 78 a1 bd 3c 9f cc 0f 3d 87 57 08 3d
       -0.025693549 0.023148283 0.03510725 0.033286598
000100 47 42 be 3c fe 11 91 3c f6 12 d1 3c 6a ef 28 bc
       0.023224963 0.017708775 0.025521737 -0.010310987

arith.constant4 f4 [68]
000000 55 fe 99 bd f1 e1 2a bc 9e 3a 39 bc 6a e9 3e 3b
       -0.07519213 -0.010429845 -0.011305479 0.0029130825
000010 b9 d6 e8 bc e6 5f ce bc 48 f2 4a ba 83 e4 b0 3c
       -0.0284227 -0.025192212 -0.0007741791 0.021593338
000020 45 90 c0 bb d9 64 51 bc e4 25 96 b9 ec a5 38 bd
       -0.0058765733 -0.012780392 -0.0002863846 -0.04508011
000030 7f 7b f5 bb d4 2a 5e 3a b4 3b 73 3c 0c 08 d0 bc
       -0.0074915285 0.000847501 0.014845777 -0.025394462
000040 02 2a 1d bc 9e 13 de be ba aa 0a 3d 4c f6 4b bd
       -0.009592535 -0.43374342 0.033854224 -0.049795434
000050 73 4c af 3b c3 2f 99 bc e8 5a 47 3d 11 9c 27 bc
       0.0053496896 -0.018699532 0.04867068 -0.01023008
000060 7a f9 38 3d 06 fa 47 bc 37 43 27 bd c9 2c fc 3b
       0.045159794 -0.012205606 -0.040835585 0.0076957685
000070 e9 14 a7 bc 09 a5 06 3d c3 4c 8c 3c 6e 8d 17 bd
       -0.020395713 0.032872234 0.017126447 -0.037000112
000080 37 79 01 3d c6 18 25 3c ea b3 db bc db c7 d9 bb
       0.03160974 0.010076707 -0.026819188 -0.006646139
000090 a6 e7 5c bd 24 f2 36 bc 63 4c 7e 3c 14 aa 88 bb
       -0.053931855 -0.011166129 0.015521142 -0.0041706655
0000a0 7b 94 cc bc 75 b0 a5 bc 30 ae 5e be 99 ea 78 bc
       -0.024973145 -0.020225743 -0.21746135 -0.015192651
0000b0 f2 3d 56 bd 9b b1 d7 bc a0 b7 95 bc ac 5c 22 ba
       -0.05230517 -0.026329806 -0.018276036 -0.0006193619
0000c0 0f ab 37 bd 11 33 7a bc 29 be 94 bc 14 bc 78 bc
       -0.04484087 -0.015270964 -0.018157082 -0.01518156
0000d0 3a 2b c6 bc b7 eb 77 be 99 dc bb bd 85 13 ce bc
       -0.024190534 -0.24211012 -0.09172935 -0.025155792
0000e0 90 2e 50 bd e5 d2 ab bd 8c 1b f2 bb cb 72 34 bd
       -0.050825655 -0.08389834 -0.0073885377 -0.044054788
0000f0 23 32 51 bd 91 4c 6d bd bb 2d 51 bc e3 db 24 3d
       -0.051073205 -0.057934348 -0.012767251 0.040248763
000100 3f 87 42 bd a8 c8 7c bd 52 de 5d 3d 1c 14 d9 bc
       -0.047492262 -0.0617148 0.0541671 -0.026498847

arith.constant5 f4 [21]
000000 f5 0b ee 3f 71 80 f3 3f 01 35 9b 3f 08 67 d6 40
       1.8597399 1.9023572 1.212555 6.700077
000010 2a 70 09 c0 c2 b5 53 3d fc 75 04 40 eb ac 0d c0
       -2.147471 0.05168701 2.0697012 -2.213679
000020 89 01 42 40 d5 6d 39 40 04 52 b7 3d 55 2c 28 c0
       3.0313437 2.8973286 0.0895119 -2.6277058
000030 f5 7d 8c 3f a2 62 10 c0 65 c6 59 3f 57 61 2d c0
       1.0975939 -2.25602 0.8506835 -2.7090662
000040 ae 0f 82 bf 81 20 19 40 c4 5f 8d c0 88 6c 92 bf
       -1.0161035 2.392609 -4.41794 -1.1439371
000050 0f 10 2a 3f
       0.66430753

arith.constant6 f4 [21, 254]
000000 21 c3 1c bf b6 41 8e c0 99 6b 5d 41 4f c1 24 41
       -0.61235243 -4.4455214 13.838769 10.2971945
000010 28 4b ff c0 ab 8c 3e 41 22 51 f8 40 33 60 99 3f
       -7.9779243 11.909343 7.759904 1.1982483
000020 df e6 6f 40 51 f6 45 41 83 ee 22 41 df ac 1f 3f
       3.7484663 12.372636 10.18323 0.62373155
000030 98 fd ef 3e a0 96 28 40 7f 96 58 41 d2 c1 6d c1
       0.46873164 2.6341934 13.536742 -14.859819
000040 08 8e 8c bf 83 87 90 c1 3f 62 17 c1 aa a9 3f c1
       -1.0980844 -18.066168 -9.461486 -11.978922
000050 91 1d 08 c0 f3 6d 5d 40 03 3c 9a c0 cb bf 6e 41
       -2.1268046 3.4598358 -4.8198256 14.921824
000060 c6 88 73 40 3b a1 24 c1 91 c5 2c 41 03 48 72 40
       3.805223 -10.289363 10.798234 3.7856452
000070 43 b9 ca c0 7a f4 0d 41 09 82 2b c1 ea 97 cc c0
       -6.335115 8.872187 -10.719247 -6.393544
000080 6f 7d ef bf 09 86 24 41 0f 8f 62 41 b7 e4 fd bf
       -1.8710154 10.282723 14.159926 -1.9835423
000090 3d 89 26 41 82 e7 93 3f 8d 2f 2b 40 b7 49 20 c1
       10.408505 1.1555026 2.6747773 -10.017997
0000a0 cc 66 fa c0 2d ef 57 c1 ff c1 5c 40 04 f7 16 41
       -7.8250484 -13.495893 3.4493406 9.435307
0000b0 ef 7c 41 41 56 54 2f c1 e8 11 1b c1 4c a5 07 41
       12.093001 -10.95809 -9.691872 8.477856
0000c0 42 5f a6 40 c5 6c 3a 3f e1 8c 7d c0 63 67 ad be
       5.199128 0.7282222 -3.9617236 -0.3386794
0000d0 b5 3f 4c 41 41 c7 f4 c0 e4 90 30 41 b8 68 26 c1
       12.765553 -7.649323 11.035374 -10.400566
0000e0 a2 9d fe bf b6 54 95 40 01 a1 2d 41 f1 0a 0f c1
       -1.9891856 4.6665907 10.851808 -8.940171
0000f0 00 eb 7a 41 68 9b ec 40 40 0e 30 41 b3 f7 e3 40
       15.682373 7.3939705 11.003479 7.1239867
000100 11 e4 fb c0 3b 0d 38 be 3a 0f cd 3f ec 9f d7 40
       -7.87159 -0.17973797 1.6020272 6.7382717
000110 f0 7b 5f 41 6b 12 ba bd 71 9a 05 41 b7 85 fc c0
       13.967758 -0.09085544 8.350205 -7.8913226
000120 12 11 27 c1 00 7f 09 40 ef eb 0b 41 6f 6a d0 3f
       -10.441668 2.1483765 8.745101 1.6282481
000130 12 eb 4c 41 c1 50 3f c1 e4 59 4c 41 c6 ce 06 c1
       12.80739 -11.957215 12.771946 -8.425482
000140 a4 2b 94 40 0c 68 d3 40 2f 90 3c c0 c8 50 2a 40
       4.630327 6.606451 -2.9463003 2.6611805
000150 65 89 10 41 81 df a7 c0 37 fb c5 3f 66 b5 35 41
       9.033544 -5.246033 1.546729 11.356787
000160 b5 04 7d c1 28 60 2c c1 02 e0 49 c0 39 f8 c5 40
       -15.813649 -10.773476 -3.1542974 6.1865506
000170 93 19 b8 3f de 47 88 40 3d 31 f8 40 87 cc 61 41
       1.4382805 4.258773 7.7560105 14.112433
000180 62 26 30 bf 05 8c 9d c0 4a 51 e3 40 bd 70 b0 bf
       -0.6880857 -4.923342 7.103673 -1.3784405
000190 f8 a5 83 41 17 78 00 3e 40 28 e7 40 b9 51 b0 c0
       16.45604 0.1254581 7.2236633 -5.509976
0001a0 28 44 34 41 d2 e5 83 40 bd e4 6e 40 33 c4 ad 41
       11.26664 4.121804 3.732711 21.7208
0001b0 9f 50 ac bf f1 30 c9 c0 75 1a 48 40 a2 c4 9e 40
       -1.3462104 -6.2872243 3.1266148 4.961503
0001c0 fd 25 47 bf 0f 8b 12 c0 95 09 6e 41 e9 60 ae c0
       -0.7779234 -2.2897375 14.877339 -5.44933
0001d0 a7 83 0c c0 e7 67 c0 bf a2 bc 24 41 2b 26 5d 41
       -2.1955354 -1.5031708 10.296053 13.821818
0001e0 30 ac 1d c0 25 80 b7 c0 74 32 38 c1 32 5f 01 41
       -2.4636345 -5.7343926 -11.512318 8.085741
0001f0 e5 7a 17 c1 6f 3f ee c0 7a 4f 71 3f 3e 33 6e 41
       -9.467504 -7.4452434 0.94261897 14.88751
000200 d8 17 f0 3f f4 af 06 c1 80 3d 1a c1 b1 cc 54 c0
       1.8757277 -8.417957 -9.640015 -3.3249934
000210 92 ce 22 c1 61 15 8c 40 af 48 10 40 c1 ba 5c 40
       -10.175432 4.3776097 2.2544363 3.4488986
000220 4c fc 57 c0 87 ba c6 40 f9 78 1c c0 35 e4 b5 c0
       -3.374774 6.2102695 -2.4448836 -5.6841073
000230 9a 7b 95 c0 ae 42 07 c1 7b c4 1e 41 08 51 66 c1
       -4.671338 -8.453779 9.922969 -14.394783
000240 9b ba 35 41 09 48 ab c1 2d 13 73 bf d6 53 15 c1
       11.358058 -21.410173 -0.94951135 -9.332968
000250 e4 5b 08 41 9f 11 8d 40 39 48 18 41 a4 6b 15 c1
       8.522434 4.408401 9.5176325 -9.338779
000260 1b d9 10 c1 2a 4b 86 c0 6a 1c 60 41 12 68 2c bf
       -9.053004 -4.1966753 14.006937 -0.673463
000270 ef c1 78 c0 fc f9 89 40 0d 28 63 c0 02 2a 32 c1
       -3.8868368 4.3117657 -3.5493195 -11.135256
000280 c0 07 e8 c0 4e 6e b2 c1 1f 37 0a 41 76 62 da c0
       -7.250946 -22.30386 8.638457 -6.824519
000290 8a 64 f5 40 29 79 77 be b0 84 24 41 8f bf 76 41
       7.668523 -0.24167313 10.282394 15.421767
0002a0 2b 23 55 c1 bc 05 3f 41 9a 28 90 41 eb 35 4d 40
       -13.321086 11.9389 18.019825 3.206416
0002b0 b5 7b 91 c1 34 01 d6 bc 16 5a 17 41 c4 92 10 41
       -18.185404 -0.02612362 9.459494 9.035831
0002c0 02 15 45 40 a1 54 e0 c0 a8 1e 1a c0 e0 a9 48 c1
       3.0794072 -7.0103307 -2.408121 -12.541473
0002d0 4e d9 54 c1 82 9b 69 c0 e5 20 9e bf a0 42 fb c0
       -13.303053 -3.6501164 -1.2353789 -7.851883
0002e0 56 8c ea 40 14 60 ac c0 8b 4a 8c 40 41 59 30 c0
       7.329631 -5.3867283 4.3840995 -2.7554476
0002f0 48 88 59 c0 eb d7 e9 3f 48 2b 9f 40 e9 fa 3d 41
       -3.398943 1.8269018 4.9740334 11.873757
000300 dc 20 c9 c0 47 5d ed bf 37 6c b3 40 81 34 ea 40
       -6.285261 -1.8544091 5.60696 7.318909
000310 6b 6c 44 be dc 14 f7 40 78 19 0d 41 b0 5d 98 c0
       -0.19181983 7.7212963 8.818718 -4.7614365
000320 30 f0 cb 40 46 3e fd c0 f6 39 27 c1 d2 b2 de 40
       6.37307 -7.9138517 -10.451651 6.9593287
000330 0f 7b 52 40 2c b2 35 c1 3c 0a 18 c1 4d af 5a c1
       3.288761 -11.355999 -9.502499 -13.667798
000340 2c 2f 0f c1 cb e7 82 40 83 99 bb 40 09 be 4b 41
       -8.949017 4.090795 5.862489 12.733895
000350 cb b7 59 40 7a 21 55 41 50 12 4c c0 d9 5b 30 41
       3.4018428 13.320673 -3.1886177 11.022424
000360 50 d4 16 41 b7 92 7f 41 17 a6 3c 41 44 b9 04 41
       9.426834 15.973319 11.790549 8.295231
000370 66 b2 79 40 0b be 7e c1 fb 2f 73 c1 15 ca f1 3f
       3.9015136 -15.921397 -15.199214 1.8889796
000380 fb d8 b3 40 d0 9b 5e c1 77 32 cb 40 c8 ec f0 c0
       5.620237 -13.91304 6.3499103 -7.528904
000390 08 4b f5 3f fd 45 f1 40 de f0 98 c0 41 d7 6f 41
       1.9163523 7.5397935 -4.7794027 14.990052
0003a0 18 ed 03 c1 da 21 97 40 40 39 dc 40 4f 82 8c 40
       -8.245384 4.7228823 6.8819885 4.390907
0003b0 04 89 0d c1 2e d9 d6 40 0e 0c e6 40 b9 55 49 41
       -8.845951 6.714011 7.1889715 12.583428
0003c0 19 44 2a c1 ec 46 24 c1 2f 74 9f 40 80 78 8e c0
       -10.641625 -10.267315 4.9829326 -4.4522095
0003d0 97 6a 13 40 2e 0a 2a 40 40 9f 1c c1 27 bd 2f c1
       2.3033807 2.6568713 -9.788879 -10.98368
0003e0 5a 38 30 41 43 47 85 41 82 b5 d1 c0 8d e6 09 c1
       11.013758 16.659796 -6.5534067 -8.618787
0003f0 54 28 42 41 1d a5 43 c1 62 d4 2b 41 6c c8 1f c1
       12.134846 -12.227811 10.739351 -9.986431

arith.constant7 f4 [124, 3, 3, 68]
000000 ab fa ea bc 12 40 ca b7 1c c4 a4 bc a4 2b f2 06
       -0.02868398 -2.4110112e-05 -0.020113043 9.1094407e-35
000010 51 cb a2 bc 91 e6 30 bd d2 be 5c 3c 6b 62 e2 bc
       -0.01987234 -0.043188635 0.0134732295 -0.02763482
000020 3e f5 b5 15 fc bc fe bb d3 35 4a 3d 81 2a 2c 88
       7.349224e-26 -0.0077739935 0.049367737 -5.180933e-34
000030 b0 6f 23 1f a0 42 4b 06 f5 be 18 bd 0c 22 4b 3d
       3.4608978e-20 3.8229005e-35 -0.037291486 0.049593017
000040 65 de 3d bd 8d 78 18 bd c4 25 6c 87 1f b2 d0 3c
       -0.04635467 -0.03722434 -1.7765765e-34 0.02547556
000050 1c 2d b5 87 ed 4e 8c bd 22 a9 0d 08 e3 12 cc bc
       -2.7260366e-34 -0.068509914 4.262946e-34 -0.02491135
000060 07 f9 10 07 b3 75 0f 08 12 1a 54 3c 1e 4f 91 bc
       1.0906538e-34 4.317085e-34 0.012945669 -0.017737921
000070 41 80 e5 87 28 94 f9 bc 79 2d 28 3d 5e 69 c8 bb
       -3.4531471e-34 -0.030466154 0.04105899 -0.0061160764
000080 98 71 16 08 ca 2e cb bb 0d a3 bb 06 9e 7a a8 25
       4.527251e-34 -0.006200646 7.0581164e-35 2.9226443e-16
000090 bc 0a 03 bd c1 17 24 3d 70 83 51 bd 96 67 52 3d
       -0.03199266 0.040061716 -0.05115074 0.05136832
0000a0 a5 df 9a bc 2d 33 e1 3c 75 a4 6e 3d 5e 16 21 bc
       -0.01890547 0.027490223 0.058262307 -0.009831993
0000b0 d4 3b fb 3a 19 2a 82 87 44 23 20 3c 21 9b 3f ba
       0.001916761 -1.9584969e-34 0.009774033 -0.0007309188
0000c0 ad 88 8b 3c ee 37 36 bd 7d 1b 1d 3b 86 c1 7e 3b
       0.017032946 -0.044486932 0.0023972683 0.0038872673
0000d0 35 98 0a bd 70 9d 2d 94 ca ab bb 87 71 fc 92 bc
       -0.033836562 -8.765317e-27 -2.8237601e-34 -0.017942639
0000e0 f6 38 1a bd e8 76 1e bd 7a 0b e9 07 b2 a4 fe 3c
       -0.03765198 -0.038687617 3.5064689e-34 0.031084392
0000f0 7c 7c ea 38 eb 9b 8f bb 65 a4 41 bd 65 7f d5 3c
       0.000111811765 -0.0043826005 -0.04727592 0.026061723
000100 ec 28 32 3d ac 54 3e bd 72 64 72 3d d5 44 02 88
       0.043496057 -0.04646747 0.059177823 -3.9201364e-34
000110 7c 84 11 bc 47 7b 59 b1 34 52 47 bc 1f cb cf 07
       -0.008881684 -3.164773e-09 -0.012165595 3.1265282e-34
000120 ba d8 0a bd 5a 3c 09 bd 23 0f 00 bc ff 44 35 3b
       -0.033898093 -0.03350482 -0.007816109 0.0027659533
000130 68 52 58 07 e8 56 ce bc b3 23 3d bc fe 77 20 07
       1.6274251e-34 -0.025187925 -0.011544156 1.2072325e-34
000140 52 44 45 07 fe 93 81 87 69 7d 41 bc d3 f6 06 bd
       1.484071e-34 -1.9496745e-34 -0.011809685 -0.032950234
000150 50 b6 08 bd 8a d0 12 3c cb ac fa 07 75 70 43 bd
       -0.03337699 0.008960852 3.7717378e-34 -0.04771467
000160 1c dd d0 87 ff 73 61 3c c2 8e 1a 88 bf f5 84 bc
       -3.1426318e-34 0.013760566 -4.65105e-34 -0.016230462
000170 4e cf 44 86 9c 6e 09 86 d7 0f 84 3c 0e d6 01 3b
       -3.7015806e-35 -2.58481e-35 0.016120834 0.0019811424
000180 a0 0b 1d 87 fd f1 26 3a 21 12 c1 3c e6 16 a6 bc
       -1.1814784e-34 0.00063684565 0.023568215 -0.02027459
000190 ff 03 18 88 f5 8d 53 3c 76 48 f9 06 bb 56 b3 25
       -4.5745534e-34 0.012912263 9.376986e-35 3.111032e-16
0001a0 a3 a6 3c bd 48 75 39 3b 39 6a 2d bd 60 62 6f bd
       -0.046057355 0.0028298665 -0.04233763 -0.058443427
0001b0 c9 67 8d 3c 4e e4 5a bd 7d 18 0b 3b 8e d5 0a 3d
       0.017261403 -0.053440385 0.0021224313 0.033895068
0001c0 7f 39 41 bc e7 d7 0c 08 a2 83 5f 3c 88 e3 35 a5
       -0.011793493 4.238351e-34 0.013642224 -1.5776338e-16
0001d0 55 83 0f 3d c3 a2 52 bc 82 c0 e9 3b d7 90 30 3c
       0.035037357 -0.012856188 0.0071335444 0.01077672
0001e0 61 38 e2 bc 24 cc 04 07 5e 07 1d 06 a5 51 06 3c
       -0.027614774 9.990568e-35 2.953383e-35 0.0081981765
0001f0 b9 1d b5 bc 9c d4 62 3c e2 43 28 88 1e 52 82 bc
       -0.0221089 0.013844635 -5.0635457e-34 -0.015908297
000200 28 be a7 b9 9c b3 87 bb ca 22 f4 bc f8 5f 2f ba
       -0.000319944 -0.004141284 -0.029801745 -0.00066900207
000210 f5 b7 99 3c 7e e7 07 bc df 3c 04 b9 f0 3f 24 06
       0.018764475 -0.008294938 -0.00012611177 3.0891946e-35
000220 bc 87 98 3c 35 1c a8 a2 ff a1 19 bc a4 da e2 07
       0.01861941 -4.5566357e-18 -0.009377002 3.4133206e-34
000230 49 22 2c 3c 57 24 16 bd 9e 85 8c 3c fd fe 95 bc
       0.010506221 -0.03665575 0.017153557 -0.018310064
000240 c5 09 b0 07 5a 7b 28 bc bd 61 75 bc 10 5a d0 86
       2.6487279e-34 -0.010283316 -0.014976916 -7.837324e-35
000250 96 b8 0e 88 57 63 12 88 6a ab 77 bb 6c ca d4 3a
       -4.294855e-34 -4.405205e-34 -0.003779138 0.0016234643
000260 a1 1e b9 bc 58 b2 10 3d 1c c5 86 87 6a 99 28 bc
       -0.022597613 0.03532633 -2.027793e-34 -0.010290483
000270 12 0e 79 07 dd 00 37 3d d7 ce 80 07 e4 54 e0 bc
       1.8736813e-34 0.044678558 1.938087e-34 -0.027384229
000280 4a 21 ee 87 ba 51 f0 87 d1 a8 6d bc 9d e6 7a bc
       -3.5829825e-34 -3.615922e-34 -0.014505581 -0.015313772
000290 fe 03 09 88 f6 44 a3 3c c5 b4 a7 bb 8b b5 bc 3b
       -4.123163e-34 0.019930344 -0.005117985 0.0057589463
0002a0 10 2d 86 07 06 6c c4 ba 6b a3 e4 07 db 71 a8 25
       2.0188564e-34 -0.0014985807 3.4401676e-34 2.9220506e-16
0002b0 91 6e 97 bc 67 b0 ed bb 76 da 60 bd e0 a8 aa bd
       -0.01848534 -0.007253695 -0.05489584 -0.083329916
0002c0 8a 14 7e bc 77 03 a8 3b 0a 4b 9b 39 06 cd 2d 3d
       -0.015507827 0.005127366 0.00029619812 0.042431854
0002d0 e6 28 23 bd 7b be 1f 07 85 ba aa 3c 43 69 af a2
       -0.039833926 1.2017808e-34 0.020840893 -4.7545295e-18
0002e0 b4 ea 44 bc 6c 33 b5 3c a8 4f 21 ba 5a 56 a0 bc
       -0.012018848 0.022119246 -0.00061535323 -0.019572426
0002f0 c7 ca e7 bc 5e 1e 38 08 68 2d 03 08 63 9b f3 3c
       -0.028294934 5.5406182e-34 3.9474753e-34 0.02973718
000300 d2 5b 91 3c 50 b1 0e 3c e0 59 19 08 7a 97 8c bc
       0.017743979 0.008709267 4.614741e-34 -0.017162073
000310 00 1a 2a bd 5e 68 a1 3c d3 5f cd bc bb d9 8a bb
       -0.0415287 0.019703086 -0.025070107 -0.0042373813
000320 3b 1a 33 bb 35 59 87 3c 11 be 8c 3b e8 39 d7 07
       -0.0027328867 0.01652203 0.0042951186 3.2383639e-34
000330 fe c7 0a bd e1 6e e7 b7 63 5b 17 bd 8c 31 a1 06
       -0.033882134 -2.7588978e-05 -0.036952388 6.063427e-35
000340 bf 0f 10 bd 58 3c bb bc ca e2 4c bd 74 2d b8 ba
       -0.035171267 -0.022855923 -0.05002097 -0.0014051632
000350 cd 11 e7 16 1e 78 fb 3c ac 35 cd 3c 72 d6 13 07
       3.7331297e-25 0.030696925 0.025050007 1.1122071e-34
000360 84 30 27 17 3e ad 5c 87 4a 82 21 bd e1 79 6d 3d
       5.4021846e-25 -1.6601872e-34 -0.039430894 0.05797756
000370 9b 56 eb bb 0f c0 24 bc 33 28 97 07 b4 06 96 3d
       -0.007181955 -0.010055556 2.2743582e-34 0.07325497
000380 fe c7 5f 07 33 ba 46 bd 78 55 22 88 15 fa a4 3c
       1.6835428e-34 -0.048517417 -4.885057e-34 0.02013878
000390 f4 dd 5f 07 f4 f5 e3 87 fa f0 bd 3b b2 5e 8b 3c
       1.6841882e-34 -3.4299722e-34 0.005796549 0.017012928
0003a0 f8 15 01 86 3b 10 ab bc 90 54 a4 39 86 44 01 bd
       -2.4278343e-35 -0.020881763 0.00031343522 -0.03155949
0003b0 ee 15 0d 88 8d f3 ca bc fb 59 e7 07 79 bf 8f a8
       -4.2456422e-34 -0.024774337 3.4809903e-34 -1.5959227e-14
0003c0 ee ed af bc bf 28 b7 3c 17 2a 5c bc 60 65 ec 3c
       -0.021475758 0.022358296 -0.013437769 0.028856933
0003d0 42 ca ee 3a 88 b6 11 3d 27 49 60 3d 56 50 e3 bb
       0.0018218237 0.035574466 0.054757264 -0.006937067
0003e0 2a e7 4b bd 46 81 1f 07 cc 6b ce bc fa 41 63 38
       -0.049781002 1.199982e-34 -0.025197886 5.4182463e-05
0003f0 ea 69 1a 3b f7 47 c7 bb 5d 9d 2f bd d4 b2 25 bd
       0.0023561665 -0.006081577 -0.042874683 -0.040453747

arith.constant8 f4 [68, 3, 3, 68]
000000 ce 74 b1 bc f3 3e 62 3a 5c 83 0d b1 0c 3b 8a bb
       -0.021662142 0.0008630596 -2.059287e-09 -0.0042184647
000010 81 22 b7 bd 9e f1 ed 3d fc 98 a9 bc c7 3e 88 bd
       -0.08942128 0.116183504 -0.020702831 -0.06652599
000020 c4 a8 b3 2f 3e 73 c1 3d 65 68 40 bb 15 92 97 bd
       3.2679826e-10 0.09445809 -0.00293591 -0.0740091
000030 2d 42 0d b7 bd 0f 0d bd b6 2a 71 3d 03 16 fd 3c
       -8.419663e-06 -0.034438837 0.058878623 0.030894285
000040 c2 31 ac bc ea 7d 1b be ee 21 3a bc d8 2d c0 bd
       -0.02101982 -0.15184751 -0.0113606285 -0.09383744
000050 5e 58 cb bc f2 1c 94 bd 6a d6 9b 3d a2 ef 08 3c
       -0.02482241 -0.072320834 0.076092556 0.008357914
000060 49 fe a1 bd 21 8f 58 3a 72 0b de 3b c6 81 2c bd
       -0.07909829 0.0008261074 0.0067762667 -0.04211595
000070 4d a1 51 b4 44 fc 88 bd 12 95 92 3d fb 02 4f b7
       -1.9523323e-07 -0.06688741 0.07157339 -1.2338855e-05
000080 17 37 ad 3c f0 68 85 bc ee 64 f5 bc bd af 40 30
       0.021144433 -0.01628539 -0.029955354 7.009893e-10
000090 dd d9 10 3c 85 3b 02 bd f3 83 6d 3d a2 37 c3 89
       0.008841005 -0.031795043 0.057987165 -4.699686e-33
0000a0 d0 01 48 36 88 d6 71 b1 d8 89 6d 3a 11 c8 34 3d
       2.9803377e-06 -3.5192063e-09 0.0009061373 0.04413611
0000b0 37 a3 32 bd 17 d7 ec 36 55 4b d8 3c 8a 09 38 3a
       -0.043612685 7.058388e-06 0.026403109 0.00070204644
0000c0 da ca 14 bd 50 92 a2 93 84 45 8d a8 bf 60 7e b3
       -0.036326267 -4.1038825e-27 -1.5684292e-14 -5.9226974e-08
0000d0 4c 32 eb 2a 35 35 1d be dc 2c 08 bd 34 bb e3 3c
       4.1779286e-13 -0.15352328 -0.033245906 0.027799226
0000e0 2a 3e ff bd 64 49 c0 3c 1e ba 10 a7 c9 bf 08 3d
       -0.12463029 0.023472495 -2.0084909e-15 0.033386026
0000f0 54 bb 21 be 48 b6 80 bd 6f e9 17 3d 6c 1d 48 3d
       -0.15794116 -0.062847674 0.037087854 0.048856184
000100 b9 6d c5 bc ee 69 ee bc 10 00 a2 3b 02 ef b4 3c
       -0.024100171 -0.029103246 0.004943855 0.022086624
000110 73 1f cd bd fa e3 25 3d b5 45 8f ae de 9e d9 bc
       -0.10015764 0.04050062 -6.5152696e-11 -0.026565012
000120 f6 77 64 3d f3 16 0b 3e e8 b9 5c 3d 3e 18 49 bd
       0.055778466 0.13582973 0.05388823 -0.049095385
000130 bf d9 52 ac 74 d1 83 3d a9 36 9d 3a 01 b6 1f 3d
       -2.9963668e-12 0.064364344 0.0011994439 0.03899193
000140 f8 c6 a6 b5 6d e7 e0 3d 37 a1 28 3e d1 d5 d4 3c
       -1.2425871e-06 0.10981641 0.16467749 0.025980862
000150 16 3c 4e bd 54 87 4b be 5f c1 04 3e 2c 6a b1 3d
       -0.05035027 -0.19875842 0.1296439 0.08662829
000160 f7 fa 8f 3d 58 b3 fa 3b a9 59 a9 3d 21 85 85 3d
       0.070302896 0.007650774 0.082690544 0.06519533
000170 d6 00 72 3d 50 a9 1b 37 44 0c 1a 3c d8 af 04 3d
       0.05908283 9.278141e-06 0.009402338 0.03239426
000180 65 31 ad af 77 7c 0b 3e 5c 89 d9 3d 23 ad 52 33
       -3.1503614e-10 0.13621698 0.10621902 4.9051902e-08
000190 29 01 8e bd fb 8c 71 bc 96 35 83 bd ca 9f af 31
       -0.06933815 -0.014743085 -0.06406705 5.1113362e-09
0001a0 7a 09 cd 3c a1 3e fe bc 4e 1a f6 3d 80 3c 22 07
       0.025028933 -0.031035723 0.12016736 1.2205305e-34
0001b0 30 1d 04 b5 f4 79 e1 ab a9 f3 f3 3c a5 6e 83 bc
       -4.9216305e-07 -1.602106e-12 0.029779272 -0.01604397
0001c0 46 b4 ba bd 5b 63 80 b5 0c f3 0a 3e a8 38 78 3a
       -0.09116416 -9.565659e-07 0.13569278 0.00094688917
0001d0 23 43 bd bc 75 73 2c 89 1c 3d 62 09 9b 48 d4 b1
       -0.023103302 -2.0758035e-33 2.7232494e-33 -6.1782663e-09
0001e0 ed 2b 51 09 02 4a 21 be 44 25 8b bd 76 ec e9 3c
       2.5178114e-33 -0.15750888 -0.06794217 0.028555136
0001f0 d7 e9 e2 bd 4c 64 54 3d 22 f0 d8 a0 b9 e2 f3 3c
       -0.11079758 0.051853463 -3.675073e-19 0.029771196
000200 64 e9 f4 3d 04 f9 15 3e 49 71 08 be 77 2d 64 3b
       0.11958578 0.14645773 -0.13324465 0.0034817138
000210 f3 25 91 3d 78 f7 f1 3c 36 56 9f 3d f3 57 d8 bc
       0.07087316 0.029536948 0.07780115 -0.026409125
000220 32 c1 82 bd ce ba 78 bd ac 07 78 ac 58 80 c9 3b
       -0.06384505 -0.060725026 -3.5247178e-12 0.006149333
000230 29 25 9b 3c 8f 19 25 bd a9 83 a0 bd 77 c4 ea bc
       0.018938618 -0.040307578 -0.07837612 -0.028658135
000240 f8 8b 19 22 d0 2f 43 bd 39 1f c6 3a 30 50 9b bd
       2.0809465e-18 -0.04765302 0.0015115506 -0.07583654
000250 eb cb bc b5 7d c1 2c 3d d7 02 d4 ba 24 22 dc bd
       -1.406644e-06 0.042176712 -0.0016175163 -0.10748699
000260 25 55 10 bd fe d4 75 bd 22 fc c4 bc 6a ce bc bb
       -0.03523745 -0.06001758 -0.024046008 -0.005761911
000270 2c 0c be bc c9 85 f2 bc a5 fe 51 bd 46 ee 5b bd
       -0.023199163 -0.02960481 -0.05126824 -0.053694032
000280 11 1e 80 3b 4d 2b fe 34 86 db b0 bd de ba 07 bd
       0.003909834 4.7342692e-07 -0.08635621 -0.033137195
000290 6f 83 e9 a9 29 89 94 3d f1 f7 bb bc 5c ba 01 28
       -1.0370079e-13 0.07252724 -0.022945376 7.201349e-15
0002a0 55 b1 b6 bd 65 51 c0 bd 1c 4a 8b bd 0a 04 8b 31
       -0.08920542 -0.09390525 -0.068012446 4.0458916e-09
0002b0 1d b9 3c bd 43 2f 5d bd ff e4 63 bc c8 c4 83 09
       -0.046074975 -0.05400015 -0.013909577 3.1722155e-33
0002c0 fa 56 29 2d db d4 70 22 2a 90 38 bd db 65 ae bd
       9.6258505e-12 3.263875e-18 -0.04505936 -0.08515521
0002d0 c5 42 a0 bd 6a 51 40 33 58 1f 63 3d 26 d8 10 3a
       -0.07825235 4.477753e-08 0.055449814 0.00055253727
0002e0 88 44 b7 3b 11 6b a2 08 1a 0f b2 89 df af ab 2e
       0.0055928864 9.7751915e-34 -4.2866143e-33 7.807421e-11
0002f0 97 83 0a 89 e0 35 90 bd 2d 10 44 bd b0 e3 e1 bc
       -1.6673019e-33 -0.07041526 -0.04786699 -0.02757439
000300 35 c7 a1 3c 31 0d 00 bd ad bb b9 12 bc bc ba bd
       0.01974831 -0.03126258 1.1721407e-27 -0.091180295
000310 c0 04 82 3d ff e8 79 bc 62 ae 9c 3c 98 0f 36 bc
       0.06348562 -0.0152533045 0.019126121 -0.011112116
000320 dc 27 8d bd f7 8c 4c bd 52 31 85 bd f1 17 5a 3d
       -0.06892368 -0.049939122 -0.06503548 0.05324549
000330 e7 f8 ad bd d9 8b bc bc fb 27 30 b1 81 bb a6 3c
       -0.0849474 -0.023015903 -2.5634097e-09 0.02035308
000340 63 61 71 bd f9 45 cb 3d 78 05 d9 3c 8e 2b 1e 3a
       -0.058930766 0.099254556 0.026491866 0.0006033712
000350 9c 83 30 2f 8d 8e df 3d ae 05 08 bb 8c 2c 0e 3b
       1.6053864e-10 0.10915861 -0.0020755338 0.0021694032
000360 9b 41 34 b7 cb a1 83 bd cb 4b bb 3c b9 05 1f 3d
       -1.0744111e-05 -0.06427344 0.02286329 0.038823817
000370 4d 52 25 bd 36 dc cb bd 4e 23 6e 3b a7 d7 cc bd
       -0.04036169 -0.09954111 0.0036336961 -0.1000207
000380 cf 60 85 3c 3a 28 5b 3c 13 b1 8f 3c 05 7c 07 3d
       0.016281513 0.01337629 0.01754049 0.03307726
000390 e8 8f 22 bd 46 e0 3d b8 76 06 0c bd c1 91 20 bd
       -0.03968802 -4.5269982e-05 -0.03418585 -0.0392015
0003a0 47 7a 56 b1 06 46 40 3c 82 85 88 3d 80 7d b2 37
       -3.1210605e-09 0.011735445 0.066660896 2.1277694e-05
0003b0 ea 1c 7a 3c 10 9f 97 bd 8a f4 3d 3d 00 86 17 2e
       0.015265683 -0.07403386 0.04637579 3.445244e-11
0003c0 f9 52 1a 3d 76 11 10 be a0 7b 26 3b a7 68 f0 09
       0.037676785 -0.14069161 0.0025403276 5.7876313e-33
0003d0 ad d2 bb b4 5e 76 40 b0 c4 0d 3e bd b6 e8 63 bc
       -3.498475e-07 -7.0017403e-10 -0.046399847 -0.013910463
0003e0 a8 eb 8f 3c 4c a8 25 37 ea cb 72 bd d6 43 44 ba
       0.017568424 9.873951e-06 -0.0592765 -0.0007486915
0003f0 84 84 93 3d 44 ed d5 14 f1 7f b7 a2 d3 3e 72 b3
       0.0720301 2.1601089e-26 -4.9737713e-18 -5.6402154e-08

arith.constant9 f4 [68, 3, 3, 32]
000000 b0 41 35 3d 30 1e b6 3a 5e 6c 82 bc 90 4a 7d b9
       0.044252098 0.0013894495 -0.015920814 -0.00024155737
000010 97 bb 1c bd ae b5 e2 39 c1 85 5e 3a 9b 77 d5 bc
       -0.038264837 0.0004324144 0.0008488559 -0.026058009
000020 67 d2 58 bc 99 2b f4 bc d5 82 64 bc fb 93 42 bc
       -0.013233758 -0.029805945 -0.013947208 -0.011876102
000030 e2 31 b1 bc 0b ae cf 3c 05 df 82 bc d8 06 a9 3c
       -0.021630231 0.025351545 -0.015975485 0.020633146
000040 71 5d 35 ba 2d 5f 85 bb 6d 64 17 bb 72 35 25 bd
       -0.0006918526 -0.0040701837 -0.002310063 -0.040334173
000050 f6 5a 92 bc f0 91 cf 3c ba 03 8a 3c a7 a1 09 bb
       -0.01786564 0.025338143 0.01684748 -0.0021000893
000060 ec ef 95 3b c3 00 49 3c 81 d9 4e bc 9f 01 fa 3c
       0.00457572 0.012268248 -0.012625099 0.030518351
000070 5d d7 5b bc ad f0 25 3c 3e 30 f4 3c b1 d7 93 3d
       -0.013418046 0.010128182 0.02980816 0.07218874
000080 90 0b 25 bc 02 66 38 3c fb 03 90 3d 9d 7a 8f 3c
       -0.0100735575 0.011254789 0.07032009 0.017514521
000090 00 6d 48 3c 17 91 df 36 6d 71 7e bb 6b 35 64 3c
       0.012233019 6.6628086e-06 -0.0038824931 0.013928751
0000a0 45 f4 4c bb 16 48 a4 bb 4d 4c ba bc 5e e1 89 3c
       -0.0031273526 -0.005013476 -0.022741461 0.016831096
0000b0 9e a8 e8 3c 1c f6 22 bd 1d 96 3b 3c 61 55 fe bc
       0.028400715 -0.03978549 0.011449364 -0.031046571
0000c0 50 77 6d 3b 2f 26 dd 3c e5 bc b0 3c e6 bc 6c 3b
       0.0036234446 0.026995746 0.021574447 0.0036123334
0000d0 f6 2f 34 bc 41 5b 2d bc 7c 56 83 3c 1c a6 f0 38
       -0.010997763 -0.010580839 0.01603245 0.00011475032
0000e0 cc c0 03 3b 45 ce 8b bc 97 a4 16 3c c5 82 ef ba
       0.002010393 -0.01706613 0.009194515 -0.0018273225
0000f0 45 9a 64 bc 9d fd 59 3c 70 1f fe 3b 95 6e a3 bd
       -0.013952796 0.013305095 0.0077552125 -0.07980076
000100 6c 23 92 bc 0a f0 8b 39 c8 6a 68 bd 8d a8 1e 3c
       -0.017839156 0.0002669099 -0.05674246 0.00968374
000110 cf f7 a4 bc 80 ea 0d b6 67 50 b4 bb 47 6a f6 ba
       -0.020137696 -2.1147134e-06 -0.005502749 -0.0018799984
000120 6e 32 aa ba a7 e6 51 ba 63 c1 c3 bc cf 6e e6 3a
       -0.0012985 -0.0008007087 -0.023895925 0.0017580631
000130 44 7b 4e 3c 39 04 ec 3c b1 18 08 bc 56 2b d4 bc
       0.012602631 0.028810607 -0.008306668 -0.02589957
000140 a1 b6 f3 3c e1 b4 d4 3c e7 6b 33 3c 56 c1 f9 bc
       0.02975017 0.025965156 0.010951019 -0.030487698
000150 39 6c 9f bb c0 32 4b ba 95 0f 34 3d ed 56 06 bc
       -0.004865196 -0.0007751398 0.043960173 -0.008199436
000160 13 3e 04 bc f1 71 68 bc f1 f7 0f bd 10 b0 b7 bc
       -0.00807144 -0.014187322 -0.035148565 -0.02242282
000170 7c e2 d9 bb 4a 01 96 3c fc 64 f4 3c af 95 8d bc
       -0.0066493135 0.018311162 0.02983331 -0.017283289
000180 b0 8a 87 3c f7 15 d9 3c 79 40 0e bd b2 fe 10 ba
       0.016545624 0.026499731 -0.034729455 -0.00055311166
000190 4e 92 4c bc d7 a7 e3 b9 db f3 55 3d fd 09 9e 3c
       -0.012486054 -0.00043421864 0.05223451 0.019291872
0001a0 4e fa b1 3c 99 6a 63 3d 48 bb b8 bc 8d bd a7 3c
       0.0217258 0.05552158 -0.02255024 0.020476127
0001b0 2f 00 92 3c 0c d1 36 bb 73 27 3a bc 9d b1 a7 3c
       0.017822353 -0.0027895598 -0.0113619445 0.020470435
0001c0 27 93 08 3b cc ae 4b 3d aa d5 d7 ba 55 67 1d bd
       0.0020839663 0.049727246 -0.0016466875 -0.038428623
0001d0 4d 52 80 3d 09 0e 80 bc c2 da 96 bb 01 d5 d4 3b
       0.06265698 -0.015631692 -0.0046037147 0.0064951186
0001e0 f9 f8 95 3b 23 e9 10 3b aa a0 52 bd 40 45 03 bc
       0.004576799 0.0022111617 -0.051422752 -0.008012116
0001f0 b3 aa 3b 3b ca bc 3a 3a 5a e0 3f bc f4 ce 19 3d
       0.002863568 0.00071234687 -0.011711204 0.03755088
000200 7c 9d ee bb 57 4a 0a bc 36 c5 b7 3d 8e 84 25 ba
       -0.007281957 -0.008440576 0.08973162 -0.00063140027
000210 c7 d5 06 3d d5 ba 7b 9d e2 a3 f7 bb d8 4a 53 bc
       0.032918718 -3.3316163e-21 -0.007557378 -0.012896262
000220 28 28 ad 3a 72 45 0d 3c 46 18 91 3d cc 14 0c bc
       0.001321082 0.008622514 0.07084708 -0.00854988
000230 4a b2 fa bb 09 07 46 bc cb 62 44 bc 78 b3 c3 bc
       -0.0076506482 -0.012086638 -0.011986445 -0.023889288
000240 07 cd b7 3b 64 bb 76 3b 13 11 49 3d fc 34 91 3c
       0.005609158 0.0037648315 0.04908855 0.01772546
000250 e8 c3 a1 bb c9 c0 a7 bc d6 55 41 bb 32 73 6e 3b
       -0.004936684 -0.02047767 -0.0029500625 0.003638458
000260 44 f5 db bc a3 fc e9 ba e0 e9 5b 3c 87 ef 89 bb
       -0.02685035 -0.0017851781 0.013422459 -0.004209462
000270 72 f6 31 3c 0b 8c 30 3c e4 c2 df 3a 02 b1 8d bd
       0.01086198 0.010775576 0.0017071632 -0.06918527
000280 04 6a 8a bb 6b 4a c6 bb 35 7b 8f bd b7 88 e1 3a
       -0.004224064 -0.006051352 -0.07005922 0.0017206882
000290 26 40 ba bc 06 64 c5 37 dc 4c dc 3a cd ef 52 bc
       -0.022735666 2.3530807e-05 0.0016807574 -0.012874556
0002a0 72 1c 5c bb f3 6e 5f bc d7 82 a3 bb a5 bf 59 bc
       -0.003358629 -0.013637292 -0.0049899626 -0.0132903205
0002b0 84 e5 30 bc 75 33 25 3d 42 1e b4 3a 26 9b 98 ba
       -0.010796908 0.040332276 0.0013741928 -0.0011642918
0002c0 ee b6 62 3d 78 a3 0a 3c b2 98 ef 3a 03 60 1b bd
       0.055350237 0.008461826 0.001827976 -0.03793336
0002d0 b3 42 3d 3b c2 c5 30 3a b7 60 af 3d 59 0e d8 3b
       0.0028878867 0.00067433354 0.08563369 0.0065935072
0002e0 c2 9b 49 bc b4 72 fc bb 66 53 04 bd 17 9c 79 bc
       -0.012305202 -0.0077041034 -0.032306097 -0.015234969
0002f0 83 d6 9d 3b 0d 4a 0c bb b4 16 2f 3d 17 46 8f bc
       0.0048168316 -0.0021406442 0.04274626 -0.017489476
000300 03 1c 09 bc 0f 17 46 b9 cd 34 a7 3c d8 98 ff bb
       -0.008368495 -0.00018891341 0.02041092 -0.007800203
000310 c8 fc 4c 3d ea dd 77 ba 93 0d 5c 3d 56 c7 19 3d
       0.05004576 -0.000945537 0.053723883 0.037543617
000320 15 b8 31 3d 00 28 ae 3d 85 35 d3 bb ed 8d c8 3b
       0.043388445 0.08503723 -0.006445589 0.0061204345
000330 14 33 a8 bb 7d 1d 35 bd 8e 90 47 bc e8 17 72 3c
       -0.005133042 -0.044217575 -0.012180461 0.0147762075
000340 91 7c 50 bc cf 54 53 bc af 8a 63 3c cc ac 8a 3c
       -0.012725011 -0.012898638 0.013888045 0.0169281
000350 6c e4 c1 3d 9f 23 6e 3c d3 4e 20 bd f5 f1 ed 3b
       0.09467396 0.01453486 -0.039137673 0.0072615095
000360 65 a0 c2 bc 15 da 58 bb eb 6c 80 bc f2 e8 2f 3c
       -0.023758123 -0.0033088971 -0.015676936 0.010736691
000370 1f ee bd 3a 44 f3 66 bc 4f 28 60 bc a9 38 e1 bc
       0.0014490521 -0.014096085 -0.013681485 -0.027492838
000380 1c 88 03 bb c1 5a b5 bc bf 43 98 3d 2b 03 e8 bb
       -0.0020070141 -0.022138001 0.074347965 -0.007080456
000390 a2 a8 14 3c 74 94 52 a9 36 4a 59 ba 62 c2 d1 bc
       0.009073408 -4.675813e-14 -0.00082889514 -0.025605384
0003a0 d6 2f 4f bb ed 13 9f bc 6d eb 91 3d 6c 08 af bc
       -0.0031614206 -0.019418681 0.07124982 -0.02136632
0003b0 32 35 0d bd ff ec 41 bb a3 1c 1c bd 26 d9 79 bd
       -0.03447456 -0.0029590724 -0.038113248 -0.060998105
0003c0 4f 1e 27 3d 22 05 85 bc 61 66 b1 3b 6c fb 0c bc
       0.04080039 -0.0162378 0.005413816 -0.0086048655
0003d0 0c a4 f7 bc d2 58 97 bc 2f 2a f4 3c 78 3c ab bc
       -0.03022959 -0.01847497 0.029805271 -0.020902857
0003e0 c3 69 9c bc 76 75 27 bc 52 13 60 bc d2 f7 a7 bc
       -0.0190934 -0.010220876 -0.013676481 -0.020503912
0003f0 30 d2 2a bc c4 51 b5 ba 28 fd 15 3c 0f 41 b6 bd
       -0.010426089 -0.0013833572 0.009154595 -0.08899128
